…
        0., 0., 0., 0., 0., 0., 0., 0., 0., 0., 0., 0., 0., 0., 0., 0., 0., 0., 0., 0., 0., 0., 0., 0.,
        0., 0., 0., 0., 0., 0., 0., 0., 0., 0., 0., 0., 0., 0., 0., 0., 0., 0., 0., 0., 0., 0., 0., 0.,
        0., 0., 0., 0., 0., 0., 0., 0., 0., 0., 0., 0., 0., 0., 0., 0., 0., 0., 0., 0., 0., 0., 0., 0.,
        0., 0., 0., 0., 0., 0., 0., 0., 0., 0., 0., 0., 0., 0., 0., 0., 0., 0., 0., 0., 0., 0., 0., 0.,
        0., 0., 0., 0., 0., 0., 0., 0., 0., 0., 0., 0., 0., 0., 0., 0., 0., 0., 0., 0., 0., 0., 0., 0.,
        0., 0., 0.], dtype=torch.float64) 987
tensor(0., dtype=torch.float64) torch.Size([])
#######1 False 3
#######5 19729
*4566 Sequential(
  (0): Linear(in_features=19729, out_features=2048, bias=True)
  (1): ReLU()
) Sequential(
  (0): Linear(in_features=2048, out_features=128, bias=True)
  (1): ReLU()
) 3 128
#######1 False 3
#######5 16618
*4566 Sequential(
  (0): Linear(in_features=16618, out_features=2048, bias=True)
  (1): ReLU()
) Sequential(
  (0): Linear(in_features=2048, out_features=128, bias=True)
  (1): ReLU()
) 3 128
#######1 False 3
#######5 225
*4566 Sequential(
  (0): Linear(in_features=225, out_features=128, bias=True)
  (1): ReLU()
) 3 128

Return DCCA DCCA(
  (encoders): ModuleList(
    (0): Encoder(
      (layers): Sequential(
        (0): Sequential(
          (0): Linear(in_features=19729, out_features=2048, bias=True)
          (1): ReLU()
        )
        (1): Sequential(
          (0): Linear(in_features=2048, out_features=128, bias=True)
          (1): ReLU()
        )
      )
      (fc): Linear(in_features=128, out_features=3, bias=True)
    )
    (1): Encoder(
      (layers): Sequential(
        (0): Sequential(
          (0): Linear(in_features=16618, out_features=2048, bias=True)
          (1): ReLU()
        )
        (1): Sequential(
          (0): Linear(in_features=2048, out_features=128, bias=True)
          (1): ReLU()
        )
      )
      (fc): Linear(in_features=128, out_features=3, bias=True)
    )
    (2): Encoder(
      (layers): Sequential(
        (0): Sequential(
          (0): Linear(in_features=225, out_features=128, bias=True)
          (1): ReLU()
        )
      )
      (fc): Linear(in_features=128, out_features=3, bias=True)
    )
  )
)
CCALightning dcca CCALightning(
  (model): DCCA(
    (encoders): ModuleList(
      (0): Encoder(
        (layers): Sequential(
          (0): Sequential(
            (0): Linear(in_features=19729, out_features=2048, bias=True)
            (1): ReLU()
          )
          (1): Sequential(
            (0): Linear(in_features=2048, out_features=128, bias=True)
            (1): ReLU()
          )
        )
        (fc): Linear(in_features=128, out_features=3, bias=True)
      )
      (1): Encoder(
        (layers): Sequential(
          (0): Sequential(
            (0): Linear(in_features=16618, out_features=2048, bias=True)
            (1): ReLU()
          )
          (1): Sequential(
            (0): Linear(in_features=2048, out_features=128, bias=True)
            (1): ReLU()
          )
        )
        (fc): Linear(in_features=128, out_features=3, bias=True)
      )
      (2): Encoder(
        (layers): Sequential(
          (0): Sequential(
            (0): Linear(in_features=225, out_features=128, bias=True)
            (1): ReLU()
          )
        )
        (fc): Linear(in_features=128, out_features=3, bias=True)
      )
    )
  )
)
GPU available: False, used: False
TPU available: False, using: 0 TPU cores
IPU available: False, using: 0 IPUs
Check


  | Name  | Type | Params
-------------------------------
0 | model | DCCA | 75.0 M
-------------------------------
75.0 M    Trainable params
0         Non-trainable params
75.0 M    Total params
299.990   Total estimated model params size (MB)
…
